…
      (2): ReLU(inplace=True)
    )
    (2): Sequential(
      (0): Dropout(p=0.3, inplace=False)
      (1): Linear(in_features=100, out_features=2, bias=True)
    )
  )
)

==========================================================================================
Layer (type:depth-idx)                   Output Shape              Param #
==========================================================================================
CRNet_3FC                                --                        --
├─ModuleList: 1-1                        --                        --
│    └─ConvPool: 2-1                     [64, 32, 111, 111]        --
│    │    └─Conv2d: 3-1                  [64, 32, 224, 224]        4,704
│    │    └─BatchNorm2d: 3-2             [64, 32, 224, 224]        64
│    │    └─ReLU: 3-3                    [64, 32, 224, 224]        --
│    │    └─MaxPool2d: 3-4               [64, 32, 111, 111]        --
│    └─ConvPool: 2-2                     [64, 64, 55, 55]          --
│    │    └─Conv2d: 3-5                  [64, 64, 111, 111]        100,416
│    │    └─ReLU: 3-6                    [64, 64, 111, 111]        --
│    │    └─MaxPool2d: 3-7               [64, 64, 55, 55]          --
│    └─ConvPool: 2-3                     [64, 128, 27, 27]         --
│    │    └─Conv2d: 3-8                  [64, 128, 55, 55]         401,536
│    │    └─ReLU: 3-9                    [64, 128, 55, 55]         --
│    │    └─MaxPool2d: 3-10              [64, 128, 27, 27]         --
├─AvgPool2d: 1-2                         [64, 128, 13, 13]         --
├─Sequential: 1-3                        [64, 2]                   --
│    └─Sequential: 2-4                   [64, 1000]                --
│    │    └─Dropout: 3-11                [64, 21632]               --
│    │    └─Linear: 3-12                 [64, 1000]                21,633,000
│    │    └─ReLU: 3-13                   [64, 1000]                --
│    └─Sequential: 2-5                   [64, 100]                 --
│    │    └─Dropout: 3-14                [64, 1000]                --
│    │    └─Linear: 3-15                 [64, 100]                 100,100
│    │    └─ReLU: 3-16                   [64, 100]                 --
│    └─Sequential: 2-6                   [64, 2]                   --
│    │    └─Dropout: 3-17                [64, 100]                 --
│    │    └─Linear: 3-18                 [64, 2]                   202
==========================================================================================
Total params: 22,240,022
Trainable params: 22,240,022
Non-trainable params: 0
Total mult-adds (G): 173.42
==========================================================================================
Input size (MB): 38.54
Forward/backward pass size (MB): 2246.71
Params size (MB): 88.96
Estimated Total Size (MB): 2374.21
…
